…
    layer = Dense(256,name='FC1')(layer)
    layer = Activation('relu')(layer)
    layer = Dropout(0.5)(layer)
    layer = Dense(1,name='out_layer')(layer)
    layer = Activation('sigmoid')(layer)
    model = Model(inputs=inputs,outputs=layer)
    return model
Compile the Model
model = RNN()
model.summary()
model.compile(loss='binary_crossentropy',optimizer=RMSprop(),metrics=['accuracy'])
_________________________________________________________________
Layer (type)                 Output Shape              Param #   
=================================================================
inputs (InputLayer)          (None, 150)               0         
_________________________________________________________________
embedding_1 (Embedding)      (None, 150, 50)           50000     
_________________________________________________________________
lstm_1 (LSTM)                (None, 64)                29440     
_________________________________________________________________
FC1 (Dense)                  (None, 256)               16640     
_________________________________________________________________
activation_1 (Activation)    (None, 256)               0         
_________________________________________________________________
dropout_1 (Dropout)          (None, 256)               0         
_________________________________________________________________
out_layer (Dense)            (None, 1)                 257       
_________________________________________________________________
activation_2 (Activation)    (None, 1)                 0         
=================================================================
Total params: 96,337
Trainable params: 96,337
Non-trainable params: 0
_________________________________________________________________
Fit the Model
model.fit(sequences_matrix,Y_train,batch_size=128,epochs=10,
          validation_split=0.2,callbacks=[EarlyStopping(monitor='val_loss',min_delta=0.0001)])
Train on 3788 samples, validate on 948 samples
…
